…
2019-08-06 20:45:09.849756: I tensorflow/core/common_runtime/gpu/gpu_device.cc:1115] Created TensorFlow device (/job:localhost/replica:0/task:0/device:GPU:0 with 10759 MB memory) -> physical GPU (device: 0, name: Tesla K80, pci bus id: 0000:05:00.0, compute capability: 3.7)
2019-08-06 20:45:09.856699: I tensorflow/core/common_runtime/gpu/gpu_device.cc:1115] Created TensorFlow device (/job:localhost/replica:0/task:0/device:GPU:1 with 10759 MB memory) -> physical GPU (device: 1, name: Tesla K80, pci bus id: 0000:84:00.0, compute capability: 3.7)
Using TensorFlow backend.
Model: "generator"
_________________________________________________________________
Layer (type)                 Output Shape              Param #   
=================================================================
dense_1 (Dense)              (None, 16384)             4931584   
_________________________________________________________________
reshape_1 (Reshape)          (None, 8, 8, 256)         0         
_________________________________________________________________
up_sampling2d_1 (UpSampling2 (None, 16, 16, 256)       0         
_________________________________________________________________
conv2d_1 (Conv2D)            (None, 16, 16, 256)       1048832   
_________________________________________________________________
batch_normalization_1 (Batch (None, 16, 16, 256)       1024      
_________________________________________________________________
activation_1 (Activation)    (None, 16, 16, 256)       0         
_________________________________________________________________
up_sampling2d_2 (UpSampling2 (None, 32, 32, 256)       0         
_________________________________________________________________
conv2d_2 (Conv2D)            (None, 32, 32, 256)       1048832   
_________________________________________________________________
batch_normalization_2 (Batch (None, 32, 32, 256)       1024      
_________________________________________________________________
activation_2 (Activation)    (None, 32, 32, 256)       0         
_________________________________________________________________
up_sampling2d_3 (UpSampling2 (None, 64, 64, 256)       0         
_________________________________________________________________
conv2d_3 (Conv2D)            (None, 64, 64, 128)       524416    
_________________________________________________________________
batch_normalization_3 (Batch (None, 64, 64, 128)       512       
_________________________________________________________________
activation_3 (Activation)    (None, 64, 64, 128)       0         
_________________________________________________________________
conv2d_4 (Conv2D)            (None, 64, 64, 128)       262272    
_________________________________________________________________
batch_normalization_4 (Batch (None, 64, 64, 128)       512       
_________________________________________________________________
activation_4 (Activation)    (None, 64, 64, 128)       0         
_________________________________________________________________
up_sampling2d_4 (UpSampling2 (None, 128, 128, 128)     0         
_________________________________________________________________
conv2d_5 (Conv2D)            (None, 128, 128, 64)      131136    
_________________________________________________________________
batch_normalization_5 (Batch (None, 128, 128, 64)      256       
_________________________________________________________________
activation_5 (Activation)    (None, 128, 128, 64)      0         
_________________________________________________________________
conv2d_6 (Conv2D)            (None, 128, 128, 64)      65600     
_________________________________________________________________
batch_normalization_6 (Batch (None, 128, 128, 64)      256       
_________________________________________________________________
activation_6 (Activation)    (None, 128, 128, 64)      0         
_________________________________________________________________
up_sampling2d_5 (UpSampling2 (None, 256, 256, 64)      0         
_________________________________________________________________
conv2d_7 (Conv2D)            (None, 256, 256, 32)      32800     
_________________________________________________________________
batch_normalization_7 (Batch (None, 256, 256, 32)      128       
_________________________________________________________________
activation_7 (Activation)    (None, 256, 256, 32)      0         
_________________________________________________________________
conv2d_8 (Conv2D)            (None, 256, 256, 1)       513       
_________________________________________________________________
activation_8 (Activation)    (None, 256, 256, 1)       0         
=================================================================
Total params: 8,049,697
Trainable params: 8,047,841
Non-trainable params: 1,856
_________________________________________________________________
Model: "discriminator"
_________________________________________________________________
Layer (type)                 Output Shape              Param #   
=================================================================
conv2d_9 (Conv2D)            (None, 128, 128, 32)      544       
_________________________________________________________________
leaky_re_lu_1 (LeakyReLU)    (None, 128, 128, 32)      0         
_________________________________________________________________
dropout_1 (Dropout)          (None, 128, 128, 32)      0         
_________________________________________________________________
conv2d_10 (Conv2D)           (None, 64, 64, 64)        32832     
_________________________________________________________________
batch_normalization_8 (Batch (None, 64, 64, 64)        256       
_________________________________________________________________
leaky_re_lu_2 (LeakyReLU)    (None, 64, 64, 64)        0         
_________________________________________________________________
dropout_2 (Dropout)          (None, 64, 64, 64)        0         
_________________________________________________________________
conv2d_11 (Conv2D)           (None, 32, 32, 128)       131200    
_________________________________________________________________
batch_normalization_9 (Batch (None, 32, 32, 128)       512       
_________________________________________________________________
leaky_re_lu_3 (LeakyReLU)    (None, 32, 32, 128)       0         
_________________________________________________________________
dropout_3 (Dropout)          (None, 32, 32, 128)       0         
_________________________________________________________________
conv2d_12 (Conv2D)           (None, 16, 16, 128)       262272    
_________________________________________________________________
batch_normalization_10 (Batc (None, 16, 16, 128)       512       
_________________________________________________________________
leaky_re_lu_4 (LeakyReLU)    (None, 16, 16, 128)       0         
_________________________________________________________________
dropout_4 (Dropout)          (None, 16, 16, 128)       0         
_________________________________________________________________
conv2d_13 (Conv2D)           (None, 8, 8, 256)         524544    
_________________________________________________________________
batch_normalization_11 (Batc (None, 8, 8, 256)         1024      
_________________________________________________________________
leaky_re_lu_5 (LeakyReLU)    (None, 8, 8, 256)         0         
_________________________________________________________________
dropout_5 (Dropout)          (None, 8, 8, 256)         0         
_________________________________________________________________
conv2d_14 (Conv2D)           (None, 4, 4, 256)         1048832   
_________________________________________________________________
batch_normalization_12 (Batc (None, 4, 4, 256)         1024      
_________________________________________________________________
leaky_re_lu_6 (LeakyReLU)    (None, 4, 4, 256)         0         
_________________________________________________________________
dropout_6 (Dropout)          (None, 4, 4, 256)         0         
_________________________________________________________________
conv2d_15 (Conv2D)           (None, 4, 4, 512)         1180160   
_________________________________________________________________
batch_normalization_13 (Batc (None, 4, 4, 512)         2048      
_________________________________________________________________
leaky_re_lu_7 (LeakyReLU)    (None, 4, 4, 512)         0         
_________________________________________________________________
dropout_7 (Dropout)          (None, 4, 4, 512)         0         
_________________________________________________________________
conv2d_16 (Conv2D)           (None, 4, 4, 512)         2359808   
_________________________________________________________________
batch_normalization_14 (Batc (None, 4, 4, 512)         2048      
_________________________________________________________________
leaky_re_lu_8 (LeakyReLU)    (None, 4, 4, 512)         0         
_________________________________________________________________
dropout_8 (Dropout)          (None, 4, 4, 512)         0         
_________________________________________________________________
flatten_1 (Flatten)          (None, 8192)              0         
_________________________________________________________________
dense_2 (Dense)              (None, 1)                 8193      
=================================================================
Total params: 5,555,809
Trainable params: 5,552,097
Non-trainable params: 3,712
_________________________________________________________________
Traceback (most recent call last):
  File "/global/home/groups/consultsw/sl-7.x86_64/modules/tensorflow/1.12.0-py36-pip-gpu/lib/python3.6/site-packages/tensorflow/python/framework/op_def_library.py", line 510, in _apply_op_helper
…
