…
2019-07-25 15:35:38.000918: I tensorflow/core/common_runtime/gpu/gpu_device.cc:1001] 0:   N 
2019-07-25 15:35:38.001465: I tensorflow/core/common_runtime/gpu/gpu_device.cc:1115] Created TensorFlow device (/job:localhost/replica:0/task:0/device:GPU:0 with 10400 MB memory) -> physical GPU (device: 0, name: GeForce GTX 1080 Ti, pci bus id: 0000:81:00.0, compute capability: 6.1)
Using TensorFlow backend.
Model: "generator"
_________________________________________________________________
Layer (type)                 Output Shape              Param #   
=================================================================
dense_1 (Dense)              (None, 16384)             4931584   
_________________________________________________________________
reshape_1 (Reshape)          (None, 8, 8, 256)         0         
_________________________________________________________________
up_sampling2d_1 (UpSampling2 (None, 16, 16, 256)       0         
_________________________________________________________________
conv2d_1 (Conv2D)            (None, 16, 16, 256)       1048832   
_________________________________________________________________
batch_normalization_1 (Batch (None, 16, 16, 256)       1024      
_________________________________________________________________
activation_1 (Activation)    (None, 16, 16, 256)       0         
_________________________________________________________________
up_sampling2d_2 (UpSampling2 (None, 32, 32, 256)       0         
_________________________________________________________________
conv2d_2 (Conv2D)            (None, 32, 32, 128)       524416    
_________________________________________________________________
batch_normalization_2 (Batch (None, 32, 32, 128)       512       
_________________________________________________________________
activation_2 (Activation)    (None, 32, 32, 128)       0         
_________________________________________________________________
up_sampling2d_3 (UpSampling2 (None, 64, 64, 128)       0         
_________________________________________________________________
conv2d_3 (Conv2D)            (None, 64, 64, 64)        131136    
_________________________________________________________________
batch_normalization_3 (Batch (None, 64, 64, 64)        256       
_________________________________________________________________
activation_3 (Activation)    (None, 64, 64, 64)        0         
_________________________________________________________________
conv2d_4 (Conv2D)            (None, 64, 64, 64)        65600     
_________________________________________________________________
batch_normalization_4 (Batch (None, 64, 64, 64)        256       
_________________________________________________________________
activation_4 (Activation)    (None, 64, 64, 64)        0         
_________________________________________________________________
up_sampling2d_4 (UpSampling2 (None, 128, 128, 64)      0         
_________________________________________________________________
conv2d_5 (Conv2D)            (None, 128, 128, 32)      32800     
_________________________________________________________________
batch_normalization_5 (Batch (None, 128, 128, 32)      128       
_________________________________________________________________
activation_5 (Activation)    (None, 128, 128, 32)      0         
_________________________________________________________________
conv2d_6 (Conv2D)            (None, 128, 128, 1)       513       
_________________________________________________________________
activation_6 (Activation)    (None, 128, 128, 1)       0         
=================================================================
Total params: 6,737,057
Trainable params: 6,735,969
Non-trainable params: 1,088
_________________________________________________________________
Model: "discriminator"
_________________________________________________________________
Layer (type)                 Output Shape              Param #   
=================================================================
conv2d_7 (Conv2D)            (None, 64, 64, 32)        320       
_________________________________________________________________
leaky_re_lu_1 (LeakyReLU)    (None, 64, 64, 32)        0         
_________________________________________________________________
dropout_1 (Dropout)          (None, 64, 64, 32)        0         
_________________________________________________________________
conv2d_8 (Conv2D)            (None, 32, 32, 64)        18496     
_________________________________________________________________
batch_normalization_6 (Batch (None, 32, 32, 64)        256       
_________________________________________________________________
leaky_re_lu_2 (LeakyReLU)    (None, 32, 32, 64)        0         
_________________________________________________________________
dropout_2 (Dropout)          (None, 32, 32, 64)        0         
_________________________________________________________________
conv2d_9 (Conv2D)            (None, 16, 16, 128)       73856     
_________________________________________________________________
batch_normalization_7 (Batch (None, 16, 16, 128)       512       
_________________________________________________________________
leaky_re_lu_3 (LeakyReLU)    (None, 16, 16, 128)       0         
_________________________________________________________________
dropout_3 (Dropout)          (None, 16, 16, 128)       0         
_________________________________________________________________
conv2d_10 (Conv2D)           (None, 8, 8, 128)         147584    
_________________________________________________________________
batch_normalization_8 (Batch (None, 8, 8, 128)         512       
_________________________________________________________________
leaky_re_lu_4 (LeakyReLU)    (None, 8, 8, 128)         0         
_________________________________________________________________
dropout_4 (Dropout)          (None, 8, 8, 128)         0         
_________________________________________________________________
conv2d_11 (Conv2D)           (None, 8, 8, 256)         295168    
_________________________________________________________________
batch_normalization_9 (Batch (None, 8, 8, 256)         1024      
_________________________________________________________________
leaky_re_lu_5 (LeakyReLU)    (None, 8, 8, 256)         0         
_________________________________________________________________
dropout_5 (Dropout)          (None, 8, 8, 256)         0         
_________________________________________________________________
conv2d_12 (Conv2D)           (None, 8, 8, 512)         1180160   
_________________________________________________________________
batch_normalization_10 (Batc (None, 8, 8, 512)         2048      
_________________________________________________________________
leaky_re_lu_6 (LeakyReLU)    (None, 8, 8, 512)         0         
_________________________________________________________________
dropout_6 (Dropout)          (None, 8, 8, 512)         0         
_________________________________________________________________
flatten_1 (Flatten)          (None, 32768)             0         
_________________________________________________________________
dense_2 (Dense)              (None, 1)                 32769     
=================================================================
Total params: 1,752,705
Trainable params: 1,750,529
Non-trainable params: 2,176
_________________________________________________________________
0 [D: 55.444321] [G: 0.851132]
500 [D: -1.022189] [G: 3.296504]
1000 [D: -1.660708] [G: 1.167491]
1500 [D: -1.665733] [G: 5.722999]
2000 [D: -1.193791] [G: 6.414682]
2500 [D: -0.031585] [G: 1.107726]
…
