…
2019-07-24 22:10:12.486615: I tensorflow/core/common_runtime/gpu/gpu_device.cc:1115] Created TensorFlow device (/job:localhost/replica:0/task:0/device:GPU:0 with 10400 MB memory) -> physical GPU (device: 0, name: GeForce GTX 1080 Ti, pci bus id: 0000:03:00.0, compute capability: 6.1)
Using TensorFlow backend.
/global/home/users/andy-wu/.local/lib/python3.6/site-packages/keras/engine/training.py:493: UserWarning: Discrepancy between trainable weights and collected trainable weights, did you set `model.trainable` without calling `model.compile` after ?
  'Discrepancy between trainable weights and collected trainable'
Model: "generator"
_________________________________________________________________
Layer (type)                 Output Shape              Param #   
=================================================================
dense_1 (Dense)              (None, 8192)              2465792   
_________________________________________________________________
reshape_1 (Reshape)          (None, 8, 8, 128)         0         
_________________________________________________________________
up_sampling2d_1 (UpSampling2 (None, 16, 16, 128)       0         
_________________________________________________________________
conv2d_1 (Conv2D)            (None, 16, 16, 128)       262272    
_________________________________________________________________
batch_normalization_1 (Batch (None, 16, 16, 128)       512       
_________________________________________________________________
activation_1 (Activation)    (None, 16, 16, 128)       0         
_________________________________________________________________
conv2d_2 (Conv2D)            (None, 16, 16, 128)       262272    
_________________________________________________________________
batch_normalization_2 (Batch (None, 16, 16, 128)       512       
_________________________________________________________________
activation_2 (Activation)    (None, 16, 16, 128)       0         
_________________________________________________________________
up_sampling2d_2 (UpSampling2 (None, 32, 32, 128)       0         
_________________________________________________________________
conv2d_3 (Conv2D)            (None, 32, 32, 64)        131136    
_________________________________________________________________
batch_normalization_3 (Batch (None, 32, 32, 64)        256       
_________________________________________________________________
activation_3 (Activation)    (None, 32, 32, 64)        0         
_________________________________________________________________
conv2d_4 (Conv2D)            (None, 32, 32, 64)        65600     
_________________________________________________________________
batch_normalization_4 (Batch (None, 32, 32, 64)        256       
_________________________________________________________________
activation_4 (Activation)    (None, 32, 32, 64)        0         
_________________________________________________________________
up_sampling2d_3 (UpSampling2 (None, 64, 64, 64)        0         
_________________________________________________________________
conv2d_5 (Conv2D)            (None, 64, 64, 32)        32800     
_________________________________________________________________
batch_normalization_5 (Batch (None, 64, 64, 32)        128       
_________________________________________________________________
activation_5 (Activation)    (None, 64, 64, 32)        0         
_________________________________________________________________
conv2d_6 (Conv2D)            (None, 64, 64, 1)         513       
_________________________________________________________________
activation_6 (Activation)    (None, 64, 64, 1)         0         
=================================================================
Total params: 3,222,049
Trainable params: 3,221,217
Non-trainable params: 832
_________________________________________________________________
Model: "discriminator"
_________________________________________________________________
Layer (type)                 Output Shape              Param #   
=================================================================
conv2d_7 (Conv2D)            (None, 32, 32, 64)        640       
_________________________________________________________________
leaky_re_lu_1 (LeakyReLU)    (None, 32, 32, 64)        0         
_________________________________________________________________
dropout_1 (Dropout)          (None, 32, 32, 64)        0         
_________________________________________________________________
conv2d_8 (Conv2D)            (None, 16, 16, 64)        36928     
_________________________________________________________________
batch_normalization_6 (Batch (None, 16, 16, 64)        256       
_________________________________________________________________
leaky_re_lu_2 (LeakyReLU)    (None, 16, 16, 64)        0         
_________________________________________________________________
dropout_2 (Dropout)          (None, 16, 16, 64)        0         
_________________________________________________________________
conv2d_9 (Conv2D)            (None, 16, 16, 128)       73856     
_________________________________________________________________
batch_normalization_7 (Batch (None, 16, 16, 128)       512       
_________________________________________________________________
leaky_re_lu_3 (LeakyReLU)    (None, 16, 16, 128)       0         
_________________________________________________________________
dropout_3 (Dropout)          (None, 16, 16, 128)       0         
_________________________________________________________________
conv2d_10 (Conv2D)           (None, 16, 16, 256)       295168    
_________________________________________________________________
batch_normalization_8 (Batch (None, 16, 16, 256)       1024      
_________________________________________________________________
leaky_re_lu_4 (LeakyReLU)    (None, 16, 16, 256)       0         
_________________________________________________________________
dropout_4 (Dropout)          (None, 16, 16, 256)       0         
_________________________________________________________________
conv2d_11 (Conv2D)           (None, 16, 16, 512)       1180160   
_________________________________________________________________
batch_normalization_9 (Batch (None, 16, 16, 512)       2048      
_________________________________________________________________
leaky_re_lu_5 (LeakyReLU)    (None, 16, 16, 512)       0         
_________________________________________________________________
dropout_5 (Dropout)          (None, 16, 16, 512)       0         
_________________________________________________________________
flatten_1 (Flatten)          (None, 131072)            0         
_________________________________________________________________
dense_2 (Dense)              (None, 1)                 131073    
=================================================================
Total params: 1,721,665
Trainable params: 1,719,745
Non-trainable params: 1,920
_________________________________________________________________
0 [D: 77.106644] [G: 1.422451]
200 [D: -14.702327] [G: -2.461471]
400 [D: -2.581468] [G: -2.773234]
600 [D: 1.288691] [G: 1.236750]
800 [D: -0.015999] [G: 0.438505]
1000 [D: -0.320492] [G: 0.922956]
…
