…
2019-07-23 15:12:29.682835: I tensorflow/core/common_runtime/gpu/gpu_device.cc:1001] 0:   N 
2019-07-23 15:12:29.683904: I tensorflow/core/common_runtime/gpu/gpu_device.cc:1115] Created TensorFlow device (/job:localhost/replica:0/task:0/device:GPU:0 with 10400 MB memory) -> physical GPU (device: 0, name: GeForce GTX 1080 Ti, pci bus id: 0000:03:00.0, compute capability: 6.1)
Using TensorFlow backend.
Model: "sequential_1"
_________________________________________________________________
Layer (type)                 Output Shape              Param #   
=================================================================
dense_1 (Dense)              (None, 8192)              2465792   
_________________________________________________________________
reshape_1 (Reshape)          (None, 8, 8, 128)         0         
_________________________________________________________________
up_sampling2d_1 (UpSampling2 (None, 16, 16, 128)       0         
_________________________________________________________________
conv2d_1 (Conv2D)            (None, 16, 16, 128)       262272    
_________________________________________________________________
batch_normalization_1 (Batch (None, 16, 16, 128)       512       
_________________________________________________________________
activation_1 (Activation)    (None, 16, 16, 128)       0         
_________________________________________________________________
conv2d_2 (Conv2D)            (None, 16, 16, 128)       262272    
_________________________________________________________________
batch_normalization_2 (Batch (None, 16, 16, 128)       512       
_________________________________________________________________
activation_2 (Activation)    (None, 16, 16, 128)       0         
_________________________________________________________________
up_sampling2d_2 (UpSampling2 (None, 32, 32, 128)       0         
_________________________________________________________________
conv2d_3 (Conv2D)            (None, 32, 32, 64)        131136    
_________________________________________________________________
batch_normalization_3 (Batch (None, 32, 32, 64)        256       
_________________________________________________________________
activation_3 (Activation)    (None, 32, 32, 64)        0         
_________________________________________________________________
up_sampling2d_3 (UpSampling2 (None, 64, 64, 64)        0         
_________________________________________________________________
conv2d_4 (Conv2D)            (None, 64, 64, 64)        65600     
_________________________________________________________________
batch_normalization_4 (Batch (None, 64, 64, 64)        256       
_________________________________________________________________
activation_4 (Activation)    (None, 64, 64, 64)        0         
_________________________________________________________________
conv2d_5 (Conv2D)            (None, 64, 64, 1)         1025      
_________________________________________________________________
activation_5 (Activation)    (None, 64, 64, 1)         0         
=================================================================
Total params: 3,189,633
Trainable params: 3,188,865
Non-trainable params: 768
_________________________________________________________________
Model: "sequential_2"
_________________________________________________________________
Layer (type)                 Output Shape              Param #   
=================================================================
conv2d_6 (Conv2D)            (None, 32, 32, 32)        320       
_________________________________________________________________
leaky_re_lu_1 (LeakyReLU)    (None, 32, 32, 32)        0         
_________________________________________________________________
dropout_1 (Dropout)          (None, 32, 32, 32)        0         
_________________________________________________________________
conv2d_7 (Conv2D)            (None, 16, 16, 64)        18496     
_________________________________________________________________
zero_padding2d_1 (ZeroPaddin (None, 17, 17, 64)        0         
_________________________________________________________________
batch_normalization_5 (Batch (None, 17, 17, 64)        256       
_________________________________________________________________
leaky_re_lu_2 (LeakyReLU)    (None, 17, 17, 64)        0         
_________________________________________________________________
dropout_2 (Dropout)          (None, 17, 17, 64)        0         
_________________________________________________________________
conv2d_8 (Conv2D)            (None, 9, 9, 128)         73856     
_________________________________________________________________
zero_padding2d_2 (ZeroPaddin (None, 10, 10, 128)       0         
_________________________________________________________________
batch_normalization_6 (Batch (None, 10, 10, 128)       512       
_________________________________________________________________
leaky_re_lu_3 (LeakyReLU)    (None, 10, 10, 128)       0         
_________________________________________________________________
dropout_3 (Dropout)          (None, 10, 10, 128)       0         
_________________________________________________________________
conv2d_9 (Conv2D)            (None, 10, 10, 256)       295168    
_________________________________________________________________
batch_normalization_7 (Batch (None, 10, 10, 256)       1024      
_________________________________________________________________
leaky_re_lu_4 (LeakyReLU)    (None, 10, 10, 256)       0         
_________________________________________________________________
dropout_4 (Dropout)          (None, 10, 10, 256)       0         
_________________________________________________________________
conv2d_10 (Conv2D)           (None, 10, 10, 512)       1180160   
_________________________________________________________________
batch_normalization_8 (Batch (None, 10, 10, 512)       2048      
_________________________________________________________________
leaky_re_lu_5 (LeakyReLU)    (None, 10, 10, 512)       0         
_________________________________________________________________
dropout_5 (Dropout)          (None, 10, 10, 512)       0         
_________________________________________________________________
flatten_1 (Flatten)          (None, 51200)             0         
_________________________________________________________________
dense_2 (Dense)              (None, 1)                 51201     
=================================================================
Total params: 1,623,041
Trainable params: 1,621,121
Non-trainable params: 1,920
_________________________________________________________________
0 [D: 64.594109] [G: 0.158242]
200 [D: -3.324173] [G: 4.848643]
400 [D: -1.572800] [G: 1.686618]
600 [D: -1.002785] [G: 2.443979]
800 [D: -0.774108] [G: 2.714848]
1000 [D: -0.676334] [G: 2.761122]
…
